GCN_initialization/GCN_0.pth (torch, 1887 bytes, 4 tensors)

gc1.weight f4 [3, 16]
000000 cc 6d 34 be 5c 33 5d be e4 86 52 be 00 2a 11 bd
       -0.17620009 -0.21601623 -0.20559269 -0.035440445
000010 be 70 44 3e a0 1d 65 3e 6a 8a 15 3e 5c a9 aa bd
       0.19183633 0.22374582 0.14603582 -0.08333084
000020 90 9c aa 3d 50 6a 1d 3e 2c c9 a7 bd 80 4d 27 3b
       0.08330643 0.15372586 -0.08192667 0.0025528371
000030 d0 6a 65 3e a8 a9 f1 bd 34 47 fe bd 40 a5 06 be
       0.22404027 -0.117999375 -0.12415925 -0.13148975
000040 86 3f 12 3e 68 86 7c 3e 5c 65 91 3d c0 e2 8a 3b
       0.14282045 0.24660647 0.07099411 0.0042384565
000050 2e 5b 19 3e 9c 91 22 3e e8 4e c5 bd f8 11 4a bd
       0.14976189 0.15875858 -0.09634191 -0.049333543
000060 f6 4f 18 be 88 8d d3 3d f0 7e 00 be a8 21 81 3d
       -0.14874253 0.10329729 -0.12548423 0.063052475
000070 60 30 37 3d 8c 09 cd bd 50 36 af bd e8 75 21 3d
       0.04472387 -0.100115865 -0.08555281 0.039419085
000080 7c 7b 4c be ee 4f 7d 3e 6e 26 18 be f0 94 d7 3d
       -0.1996898 0.24737522 -0.1485841 0.105264544
000090 d6 20 4b be 40 a1 ad bc e0 5a c6 bd f8 63 78 3d
       -0.19836745 -0.021195054 -0.09685302 0.060642213
0000a0 bc d9 37 3e a0 ee c9 bd a0 ea 5c bc 80 4b f2 bd
       0.17954153 -0.09859967 -0.013483673 -0.11830807
0000b0 84 b7 76 be 84 eb c2 3d 3c b4 f7 3d 9a a5 3a be
       -0.24093443 0.09517577 0.12094924 -0.18227234

gc1.bias f4 [16]
000000 88 85 7a be d8 21 0f be c0 38 dd bb b6 98 53 be
       -0.24465 -0.13977754 -0.00675115 -0.20663723
000010 24 4c 78 be 14 eb 73 be f0 00 47 3d 80 de dc 3c
       -0.24247795 -0.23820144 0.04858488 0.026961565
000020 9a 34 18 be 1c 7d 32 be c8 76 f8 3d 08 00 4d bd
       -0.14863816 -0.17430538 0.12132031 -0.050048858
000030 bc 93 8b bd ce 7d 2d be 44 c4 7b be 2a 68 0b 3e
       -0.068152875 -0.16942522 -0.24586588 0.13613954

gc2.weight f4 [16, 3]
000000 c8 3b ab 3d f9 5d 98 be a3 96 90 be 68 b5 c5 bd
       0.08361012 -0.29759195 -0.28239927 -0.09653741
000010 61 a2 e3 be 4d 2b 08 bf 2c 43 64 be e8 1a c2 bd
       -0.44459823 -0.5319107 -0.22291249 -0.09477788
000020 60 d6 c3 3d 60 5f 25 3e b4 3a 00 3f a0 ae 59 3d
       0.09562373 0.16149664 0.50089574 0.05314505
000030 75 82 9a be 8c 06 c2 3e 3a 88 88 3e 93 bc 13 bf
       -0.30177656 0.3789562 0.26666433 -0.57709616
000040 e4 23 06 3e 18 14 f7 be 80 41 04 3c 12 5a 0e 3f
       0.13099629 -0.48257518 0.008072257 0.55606186
000050 7c 82 92 3e 94 6c 61 3e c0 d7 f0 3d 54 23 36 be
       0.28615177 0.22014076 0.11759901 -0.17786914
000060 74 b9 fb bd 8c 0a 5a be db 6e 90 be 47 2d bf be
       -0.12291232 -0.21293086 -0.28209576 -0.3733923
000070 b8 b9 e4 3d a0 44 cf bc 5a f7 46 be 8c 05 f6 3e
       0.111682355 -0.025301278 -0.19430295 0.48051107
000080 74 c4 5b 3e 9e 9c 0c 3f b8 0d bb 3e 88 bf 8a bd
       0.2146166 0.5492648 0.36533904 -0.06774813
000090 48 17 25 3e fa 0c 6b be 4c 56 8f 3e de d4 af 3e
       0.16122162 -0.22954169 0.27995527 0.34342092
0000a0 52 2a a5 3e 7e cf 11 3f 58 c1 bf 3d 94 d2 c9 be
       0.3225885 0.5695723 0.09363049 -0.3941847
0000b0 49 14 f7 be 59 fd a2 be f8 6f fe bd fc 2e ac be
       -0.48257664 -0.31833914 -0.124237 -0.33629596

gc2.bias f4 [3]
000000 30 18 15 3e 68 03 c3 be 18 57 c7 bd
       0.14560008 -0.38088536 -0.09733409
