GCN_initialization/NonLinearNw2.pth (torch, 1887 bytes, 4 tensors)

linear1.weight f4 [16, 3]
00000000: 707f 50bd 1eb2 b8be 026d 86be 68ea f93e
00000010: de79 f4be 7455 a0bd ea7f b73e e827 713e
00000020: 175b e9be ea54 febe ccbb dbbe 40b9 f4bc
00000030: 496a edbe 9028 38be 58e3 583e 1814 903d
00000040: 0020 e1ba 00bc 2ebe 7ecd 99be 9ca8 9fbe
00000050: 3138 bcbe 0448 d53e ccad c13e 7c05 7c3e
00000060: 18e5 8c3d 7e90 bd3e 388d 8ebd fa92 1bbe
00000070: 64cf edbd e8b8 883e d43d ca3e c880 c2be
00000080: 9ee2 cb3e 6e4a afbe beec aabe 84a5 bbbe
00000090: 055d dabe d053 e33d c802 993e 2012 a3bc
000000a0: 48d6 fc3e 7847 99bd 4014 4abd 5ab3 083f
000000b0: d07b 073f 20fb 9fbe 290d 94be 000c 0ebf
-0.050902784 -0.36073393 -0.2625504 0.4881165 -0.47749227 -0.07828799 0.35839778 0.2355038
-0.4557731 -0.4967416 -0.42916715 -0.02987349 -0.46370152 -0.17984223 0.21180475 0.070350826
-0.0017175674 -0.17063904 -0.3003959 -0.31183326 -0.3676162 0.41656506 0.3782791 0.24611467
0.06879634 0.370243 -0.06960529 -0.15192786 -0.11611822 0.26703572 0.39500296 -0.37988877
0.39821333 -0.34236473 -0.33383745 -0.36649716 -0.42649093 0.1109997 0.29884934 -0.019906104
0.49382234 -0.07484335 -0.04933572 0.5339867 0.529233 -0.3124628 -0.2891629 -0.5548706

linear1.bias f4 [16]
00000000: 7897 f9bd 6cad 9b3e a255 0dbf 609a 3fbd
00000010: c4f2 0a3f 6061 dd3d 80e2 4dbd a831 a73d
00000020: 00e0 aa39 f295 9fbe a664 c7be d0bc dcbd
00000030: 10d8 053f e26e 9d3e b1b5 c8be 16e7 b33e
-0.121870935 0.30405748 -0.5520879 -0.046778083 0.5427668 0.108095884 -0.050264835 0.08163768
0.0003259182 -0.31169087 -0.38943976 -0.107782006 0.5228281 0.3074866 -0.3920112 0.35137242

linear2.weight f4 [3, 16]
00000000: b481 58be 00a3 d5bd 2871 233e ae07 1bbe
00000010: a0d9 293c 28f5 b4bd 8019 4e3e f808 ba3d
00000020: 74f2 70be 60d4 ad3d 60a6 91bc 5491 0a3e
00000030: c6be 0fbe 1450 05be d0b6 3d3e 486a 24bd
00000040: 4627 0f3e be67 51be 30cd c3bc 9419 b53d
00000050: c476 4dbe 04e5 c4bd 8887 07be e426 7d3e
00000060: f40b 243e ac4d eebd 782e 87bd 7c4a de3d
00000070: 5249 12be 0a68 1bbe cc6d d83d 9034 6c3d
00000080: 9081 2cbd 1e23 2fbe c085 0b3c 8058 523c
00000090: cedb 19be cca4 083e a624 143e e892 82bd
000000a0: 6461 533e 8061 7fbc 8c52 313e 90a9 443d
000000b0: a679 373e 5ed1 3cbe f825 4b3d 20c2 4d3c
-0.21143228 -0.104314804 0.15961134 -0.15139648 0.010366827 -0.08835822 0.20126915 0.09083742
-0.23529989 0.08487773 -0.01777953 0.13532001 -0.14037618 -0.13018829 0.18526769 -0.04014042
0.13979825 -0.20449731 -0.023901552 0.08842769 -0.20064837 -0.09613994 -0.13235295 0.24721867
0.16020185 -0.116359085 -0.0660066 0.108540505 -0.14285782 -0.15176407 0.10567817 0.057667315
-0.042115748 -0.1710324 0.008515775 0.012838483 -0.15025255 0.13344115 0.14467105 -0.063756764
0.2064262 -0.015587211 0.17316645 0.04801327 0.17917499 -0.18439242 0.049596757 0.01255849

linear2.bias f4 [3]
00000000: 28a9 53bd 3cf4 c23d ccd2 573e
-0.05167499 0.0951924 0.21076506
