GCN_initialization/NonLinearNw3.pth (torch, 1887 bytes, 4 tensors)

linear1.weight f4 [16, 3]
0.09411675 0.2597955 -0.3637271 0.15291011 0.3724239 -0.40903836 -0.35358346 -0.4936918
-0.3029616 0.2719118 -0.22569269 0.46800566 0.1460867 0.119811535 -0.057913065 0.25214523
-0.528116 0.41470337 -0.2138772 0.5690254 0.23440152 -0.43539834 -0.28290275 -0.5416944
-0.20338124 -0.28195122 0.31892967 -0.01740694 -0.16934326 -0.2996208 0.44348645 0.5391321
0.05308491 -0.5321987 0.27022684 0.18818313 0.5372337 -0.18847165 -0.51091224 0.04956782
-0.2484087 0.24698395 0.099601865 -0.48493424 0.07785177 -0.3500142 0.21973294 0.4161802
00000000: 48c0 c03d ea03 853e 703a babe 7894 1c3e
00000010: 58ae be3e 7a6d d1be e408 b5be 2cc5 fcbe
00000020: c81d 9bbe 0638 8b3e fc1b 67be 709e ef3e
00000030: c097 153e c05f f53d 4036 6dbd 2e19 813e
00000040: 9c32 07bf 0054 d43e a002 5bbe a6ab 113f
00000050: f406 703e 88ec debe a1d8 90be 7cac 0abf
00000060: 2c43 50be e95b 90be c04a a33e 0099 8ebc
00000070: 5268 2dbe e667 99be a810 e33e 9004 0a3f
00000080: 906f 593d 2d3e 08bf 2c5b 8a3e 14b3 403e
00000090: 2688 093f b6fe 40be 25cb 02bf a007 4b3d
000000a0: da5e 7ebe 5ce9 7c3e 10fc cb3d 4d49 f8be
000000b0: c070 9f3d 1035 b3be ac01 613e 9215 d53e

linear1.bias f4 [16]
0.06042862 0.34166044 -0.32770187 0.32928038 0.3349806 0.42569232 0.17335534 0.4277296
-0.34331825 0.2457301 0.44194722 0.019670188 -0.3478399 0.15651232 0.0886243 -0.5694685
00000000: 0084 773d 1eee ae3e 8ac8 a7be 7097 a83e
00000010: 9482 ab3e 58f4 d93e 1084 313e 60ff da3e
00000020: 69c7 afbe aca0 7b3e e846 e23e 6023 a13c
00000030: 1218 b2be c444 203e a880 b53d b0c8 11bf

linear2.weight f4 [3, 16]
0.19652039 0.019456238 -0.17410168 -0.19363767 0.16065463 0.105826885 -0.14444268 -0.08442414
0.23484975 0.21642736 0.17323884 0.038193524 0.20924714 -0.01725316 -0.028441995 0.03826812
0.017046005 0.031763583 -0.12632439 -0.067040175 0.11940223 0.019896835 0.24267042 -0.15333816
0.05752486 -0.18473107 0.16899142 0.21357474 0.05833313 0.09583938 0.018805563 -0.18425632
0.10514638 0.098232776 -0.12756383 -0.15164796 -0.073111504 -0.23591149 -0.13209537 -0.1538373
-0.09853983 -0.21924102 -0.035313457 0.054485947 0.24973953 -0.1696927 0.19896686 0.06607765
00000000: a43c 493e b062 9f3c b647 32be f448 46be
00000010: a682 243e c4bb d83d c8e8 13be 90e6 acbd
00000020: 747c 703e 229f 5d3e 8665 313e d070 1c3d
00000030: e244 563e 8056 8dbc 30ff e8bc 08bf 1c3d
00000040: 10a4 8b3c 881a 023d 2e5b 01be 5c4c 89bd
00000050: 2889 f43d b0fe a23c 987e 783e ae04 1dbe
00000060: 309f 6b3d 242a 3dbe 160c 2d3e 56b3 5a3e
00000070: b8ee 6e3d 7047 c43d 200e 9a3c b0ad 3cbe
00000080: fc56 d73d 442e c93d 18a0 02be 9a49 1bbe
00000090: 7cbb 95bd c892 71be 0244 07be 8687 1dbe
000000a0: 40cf c9bd b880 60be d8a4 10bd a82c 5f3d
000000b0: b8bb 7f3e ecc3 2dbe f8bd 4b3e b853 873d

linear2.bias f4 [3]
0.107363135 0.008096784 0.18415403
00000000: 34e1 db3d 60a8 043c e092 3c3e
