GCN_initialization/NonLinearNw1.pth (torch, 1887 bytes, 4 tensors)

linear1.weight f4 [16, 3]
0.33243573 0.23282868 0.42814136 -0.2666103 -0.34396487 -0.49626946 0.43588257 0.405738
0.23907119 0.4036281 -0.35218388 0.37822127 -0.16430819 0.065906405 0.44799364 0.049984097
-0.13862017 0.38437682 0.15973955 0.1464464 -0.49402472 -0.5535802 0.48438895 -0.32015124
-0.14569199 0.31555212 -0.41631556 -0.09342638 -0.40592873 -0.19495845 -0.24167356 -0.4861827
-0.3917304 -0.4332121 0.18834084 0.091730416 0.16936314 0.30285138 0.4551214 0.44500816
0.28731924 0.2606737 -0.25665826 -0.008901 -0.47801685 0.3853411 -0.43252507 -0.43289274
00000000: 0435 aa3e a46a 6e3e 5835 db3e 2581 88be
00000010: 2a1c b0be 0817 febe 002c df3e e4bc cf3e
00000020: 14cf 743e 58a8 ce3e 7251 b4be 38a6 c13e
00000030: 6840 28be f0f9 863d 6c5f e53e 20bc 4c3d
00000040: 72f2 0dbe 0acd c43e c492 233e 0cf6 153e
00000050: cff0 fcbe 6fb7 0dbf d401 f83e ddea a3be
00000060: 4830 15be 0c90 a13e 5027 d5be 5456 bfbd
00000070: e4d5 cfbe 30a3 47be 4679 77be f0ec f8be
00000080: e390 c8be facd ddbe 6cdc 403e 28dd bb3d
00000090: 886d 2d3e 560f 9b3e ac05 e93e 1cd8 e33e
000000a0: 821b 933e 0677 853e b668 83be 80d5 11bc
000000b0: a0be f4be 6e4b c53e ed73 ddbe 1ea4 ddbe

linear1.bias f4 [16]
0.37906128 0.15119487 -0.36902204 -0.5336172 0.21608996 0.3754875 -0.43287194 0.076233625
0.42173678 0.3630253 0.17758363 -0.36169603 -0.5623288 -0.058569252 -0.07739678 -0.31553215
00000000: 5214 c23e d4d2 1a3e 75f0 bcbe 239b 08bf
00000010: b046 5d3e e63f c03e 64a1 ddbe 6020 9c3d
00000020: e2ed d73e 74de b93e 7cd8 353e 3930 b9be
00000030: c8f4 0fbf 50e6 6fbd 3482 9ebd 6e8d a1be

linear2.weight f4 [3, 16]
-0.19923443 0.16000459 -0.19828588 0.14096463 -0.0475837 0.22944239 -0.05736637 0.10023686
-0.123909116 -0.064790964 -0.16465282 0.08496806 0.14370671 -0.026985973 -0.1633102 -0.1966705
0.19393814 -0.16718915 0.07584995 0.1679408 0.20222485 -0.08564371 -0.16510671 -0.1405547
0.2025317 0.039396167 -0.22411937 -0.23474953 -0.12070066 0.21381468 -0.075793445 -0.15937725
-0.092136145 -0.15470865 0.02184999 0.1437918 0.13717154 -0.11841676 0.19346806 0.09738761
-0.041923493 -0.16815296 0.24276829 0.10169765 -0.22124982 0.23768857 -0.016312927 0.20655468
00000000: 1c04 4cbe 3ed8 233e 740b 4bbe 0859 103e
00000010: 20e7 42bd f2f2 6a3e 00f9 6abd fc48 cd3d
00000020: 10c4 fdbd 20b1 84bd c09a 28be bc03 ae3d
00000030: da27 133e b011 ddbc ca3a 27be fe63 49be
00000040: b897 463e a233 2bbe 3857 9b3d acf8 2b3e
00000050: 0814 4f3e f865 afbd bc11 29be 92ed 0fbe
00000060: 7864 4f3e e05d 213d 8c7f 65be 2e62 70be
00000070: e831 f7bd 3cf2 5a3e 9839 9bbd ca33 23be
00000080: e0b1 bcbd f26b 1ebe c0fe b23c 283e 133e
00000090: b276 0c3e 7c84 f2bd 7e1c 463e 2873 c73d
000000a0: f8b7 2bbd 4a30 2cbe 4098 783e dc46 d03d
000000b0: 508f 62be a264 733e b0a2 85bc 1283 533e

linear2.bias f4 [3]
0.22590625 0.16226226 -0.039425224
00000000: f853 673e 1428 263e 587c 21bd
